…
{0: 1, 1: 0, 2: 0, 3: 0, 4: 0, 5: 0, 6: 0, 7: 0, 8: 0, 9: 1, 10: 1, 11: 1, 12: 1, 13: 1, 14: 1, 15: 1, 16: 1, 17: 1, 18: 1, 19: 1, 20: 1, 21: 1, 22: 1, 23: 1, 24: 1, 25: 1, 26: 1, 27: 1, 28: 1, 29: 1, 30: 1, 31: 1, 32: 1, 33: 1, 34: 1, 35: 1, 36: 1, 37: 1, 38: 1, 39: 1, 40: 1, 41: 1, 42: 1, 43: 1, 44: 1, 45: 1, 46: 1, 47: 1, 48: 1, 49: 1, 50: 1, 51: 2, 52: 2, 53: 3, 54: 3}
DataParallel(
  (module): PEGCN(
    (spenc): GridCellSpatialRelationEncoder(
      (ffn): MultiLayerFeedForwardNN(
        (layers): ModuleList(
          (0): SingleFeedForwardNN(
            (dropout): Dropout(p=0.5, inplace=False)
            (act): ReLU()
            (linear): Linear(in_features=64, out_features=256, bias=True)
          )
        )
      )
    )
    (spdec): Sequential(
      (0): Linear(in_features=256, out_features=128, bias=True)
      (1): Tanh()
      (2): Linear(in_features=128, out_features=64, bias=True)
      (3): Tanh()
      (4): Linear(in_features=64, out_features=16, bias=True)
    )
    (transformer_inc): Linear(in_features=11, out_features=32, bias=True)
    (transformer_encoder): Transformer(
      (encoder): Encoder(
        (layers): ModuleList(
          (0-1): 2 x EncoderLayer(
            (norm_1): Norm()
            (norm_2): Norm()
            (dropout_1): Dropout(p=0.1, inplace=False)
            (dropout_2): Dropout(p=0.1, inplace=False)
            (attn): MultiHeadAttention(
              (q_linear): Linear(in_features=32, out_features=32, bias=True)
              (k_linear): Linear(in_features=32, out_features=32, bias=True)
              (v_linear): Linear(in_features=32, out_features=32, bias=True)
              (dropout): Dropout(p=0.1, inplace=False)
              (out): Linear(in_features=32, out_features=32, bias=True)
            )
            (ff): FeedForward(
              (linear_1): Linear(in_features=32, out_features=128, bias=True)
              (dropout): Dropout(p=0.1, inplace=False)
              (linear_2): Linear(in_features=128, out_features=32, bias=True)
            )
          )
        )
        (norm): Norm()
      )
    )
    (transformer_dec): MultiLayerFeedForwardNN(
      (layers): ModuleList(
        (0): SingleFeedForwardNN(
          (dropout): Dropout(p=0.1, inplace=False)
          (act): ReLU()
          (layernorm): LayerNorm((32,), eps=1e-05, elementwise_affine=True)
          (linear): Linear(in_features=32, out_features=32, bias=True)
        )
        (1): SingleFeedForwardNN(
          (dropout): Dropout(p=0.1, inplace=False)
          (act): ReLU()
          (linear): Linear(in_features=32, out_features=32, bias=True)
        )
      )
    )
    (conv1): GCNConv(50, 256)
    (conv2): GCNConv(256, 256)
    (task_heads): ModuleList(
      (0-1): 2 x Linear(in_features=256, out_features=1, bias=True)
    )
  )
)

Training to 3 epochs (8 of mini batch size)
Each epoch #real_iter: 40.0
working on training loop
	Iter 1 - Loss: 0.2279195934534073 Aux_loss:[0.0216649733483791
…
