…
  "output_hidden_layers": 0,
  "d_model": 32,
  "env_features_in": 11,
  "dropout": 0.1,
  "feedforward_dim": 128,
  "trans_lr": 0.001,
  "embedding_dim": 64,
  "epoch": 20,
  "debug": false,
  "aux_task_num": 1,
  "hyper_lr": 1e-05,
  "hyper_decay": 0.0,
  "hyper_pre": -1,
  "hyper_interval": 100,
  "hyper_aux_loss_weight": 0.1,
  "transformer_dec_output": 32,
  "coffer_slot": "./coffer_trsage_g/23883600-2024-07-22-11-10-06/"
}
Working on multi-GPU [0, 1]
Length of df dict: 12045
Length of call list: 315904
Length of df dict: 4015
Length of call list: 94976
DataParallel(
  (module): INTP_Model(
    (fc_mu_d): Linear(in_features=64, out_features=64, bias=True)
    (fc_var_d): Linear(in_features=64, out_features=64, bias=True)
    (d_embedding_layer): Linear(in_features=13, out_features=64, bias=True)
    (d_transformer): Encoder(
      (layers): ModuleList(
        (0-1): 2 x EncoderLayer(
          (norm_1): Norm()
          (norm_2): Norm()
          (dropout_1): Dropout(p=0.1, inplace=False)
          (dropout_2): Dropout(p=0.1, inplace=False)
          (attn): MultiHeadAttention(
            (q_linear): Linear(in_features=64, out_features=64, bias=True)
            (v_linear): Linear(in_features=64, out_features=64, bias=True)
            (k_linear): Linear(in_features=64, out_features=64, bias=True)
            (dropout): Dropout(p=0.1, inplace=False)
            (out): Linear(in_features=128, out_features=64, bias=True)
          )
          (ff): FeedForward(
            (linear_1): Linear(in_features=64, out_features=128, bias=True)
            (dropout): Dropout(p=0.1, inplace=False)
            (linear_2): Linear(in_features=128, out_features=64, bias=True)
            (activation): NewGELU()
          )
        )
      )
      (norm): Norm()
    )
    (s_embedding_layer): Linear(in_features=13, out_features=64, bias=True)
    (gsage): GraphSAGE(64, 1, num_layers=2)
  )
)

Training to 20 epochs (16 of mini batch size)
Each epoch #real_iter: 2468.0
working on training loop
	Iter 1 - Loss: 5.948369741439819 - real_iter_time: 8.491252183914185	Iter 2 - Loss: 5.990456819534302 - real_iter_time: 0.7413127422332764	Iter 3 - Loss: 5.986409425735474 - real_iter_time: 0.743690490
…
