…
  "hyper_decay": 0.0,
  "hyper_pre": -1,
  "hyper_interval": 100,
  "hyper_aux_loss_weight": 0.1,
  "transformer_dec_output": 32,
  "coffer_slot": "./coffer_FE_mask/23846952-2024-07-11-01-48-03/"
}
Working on multi-GPU [0, 1]
Length of df dict: 12045
Length of call list: 444416
Length of df dict: 4015
Length of call list: 110336
DataParallel(
  (module): PEGCN(
    (spenc): GridCellSpatialRelationEncoder(
      (ffn): MultiLayerFeedForwardNN(
        (layers): ModuleList(
          (0): SingleFeedForwardNN(
            (dropout): Dropout(p=0.5, inplace=False)
            (act): ReLU()
            (linear): Linear(in_features=64, out_features=256, bias=True)
          )
        )
      )
    )
    (spdec): Sequential(
      (0): Linear(in_features=256, out_features=128, bias=True)
      (1): Tanh()
      (2): Linear(in_features=128, out_features=64, bias=True)
      (3): Tanh()
      (4): Linear(in_features=64, out_features=16, bias=True)
    )
    (transformer_inc): Linear(in_features=11, out_features=32, bias=True)
    (transformer_encoder): Transformer(
      (encoder): Encoder(
        (layers): ModuleList(
          (0-1): 2 x EncoderLayer(
            (norm_1): Norm()
            (norm_2): Norm()
            (dropout_1): Dropout(p=0.1, inplace=False)
            (dropout_2): Dropout(p=0.1, inplace=False)
            (attn): MultiHeadAttention(
              (q_linear): Linear(in_features=32, out_features=32, bias=True)
              (k_linear): Linear(in_features=32, out_features=32, bias=True)
              (v_linear): Linear(in_features=32, out_features=32, bias=True)
              (dropout): Dropout(p=0.1, inplace=False)
              (out): Linear(in_features=32, out_features=32, bias=True)
            )
            (ff): FeedForward(
              (linear_1): Linear(in_features=32, out_features=128, bias=True)
              (dropout): Dropout(p=0.1, inplace=False)
              (linear_2): Linear(in_features=128, out_features=32, bias=True)
            )
          )
        )
        (norm): Norm()
      )
    )
    (transformer_dec): MultiLayerFeedForwardNN(
      (layers): ModuleList(
        (0): SingleFeedForwardNN(
          (dropout): Dropout(p=0.1, inplace=False)
          (act): ReLU()
          (layernorm): LayerNorm((32,), eps=1e-05, elementwise_affine=True)
          (linear): Linear(in_features=32, out_features=32, bias=True)
        )
        (1): SingleFeedForwardNN(
          (dropout): Dropout(p=0.1, inplace=False)
          (act): ReLU()
          (linear): Linear(in_features=32, out_features=32, bias=True)
        )
      )
    )
    (conv1): GCNConv(50, 256)
    (conv2): GCNConv(256, 256)
    (fc): Linear(in_features=256, out_features=1, bias=True)
  )
)

Training to 20 epochs (16 of mini batch size)
Each epoch #real_iter: 3472.0
working on training loop
	Iter 1 - Loss: 1.1600826978683472 - real_iter_time: 5.25495719909668	Iter 2 - Loss: 1.2909503281116486 - real_iter_time: 0.4559624195098877	Iter 3 - Loss: 1.2237374857068062 - real_iter_time: 0.4603126049041748	Iter 4 - Loss: 1.2743234559893608
…
