…
  "hyper_decay": 0.0,
  "hyper_pre": -1,
  "hyper_interval": 100,
  "hyper_aux_loss_weight": 0.1,
  "transformer_dec_output": 32,
  "coffer_slot": "./coffer_FE/23479650-2024-04-28-05-01-43/"
}
Working on multi-GPU [0, 1, 2, 3]
Length of df dict: 12045
Length of call list: 315904
Length of df dict: 4015
Length of call list: 94976
DataParallel(
  (module): PEGCN(
    (spenc): GridCellSpatialRelationEncoder(
      (ffn): MultiLayerFeedForwardNN(
        (layers): ModuleList(
          (0): SingleFeedForwardNN(
            (dropout): Dropout(p=0.5, inplace=False)
            (act): ReLU()
            (linear): Linear(in_features=64, out_features=256, bias=True)
          )
        )
      )
    )
    (spdec): Sequential(
      (0): Linear(in_features=256, out_features=128, bias=True)
      (1): Tanh()
      (2): Linear(in_features=128, out_features=64, bias=True)
      (3): Tanh()
      (4): Linear(in_features=64, out_features=16, bias=True)
    )
    (transformer_inc): Linear(in_features=11, out_features=32, bias=True)
    (transformer_encoder): TransformerEncoder(
      (layers): ModuleList(
        (0-1): 2 x TransformerEncoderLayer(
          (self_attn): MultiheadAttention(
            (out_proj): NonDynamicallyQuantizableLinear(in_features=32, out_features=32, bias=True)
          )
          (linear1): Linear(in_features=32, out_features=128, bias=True)
          (dropout): Dropout(p=0.1, inplace=False)
          (linear2): Linear(in_features=128, out_features=32, bias=True)
          (norm1): LayerNorm((32,), eps=1e-05, elementwise_affine=True)
          (norm2): LayerNorm((32,), eps=1e-05, elementwise_affine=True)
          (dropout1): Dropout(p=0.1, inplace=False)
          (dropout2): Dropout(p=0.1, inplace=False)
        )
      )
    )
    (transformer_dec): MultiLayerFeedForwardNN(
      (layers): ModuleList(
        (0): SingleFeedForwardNN(
          (dropout): Dropout(p=0.1, inplace=False)
          (act): ReLU()
          (layernorm): LayerNorm((32,), eps=1e-05, elementwise_affine=True)
          (linear): Linear(in_features=32, out_features=32, bias=True)
        )
        (1): SingleFeedForwardNN(
          (dropout): Dropout(p=0.1, inplace=False)
          (act): ReLU()
          (linear): Linear(in_features=32, out_features=32, bias=True)
        )
      )
    )
    (conv1): GCNConv(50, 256)
    (conv2): GCNConv(256, 256)
    (fc): Linear(in_features=256, out_features=1, bias=True)
  )
)

Training to 20 epochs (16 of mini batch size)
Each epoch #real_iter: 2468.0
working on training loop
	Iter 1 - Loss: 1.002082895487547 - real_iter_time: 5.511470794677734	Iter 2 - Loss: 0.9893638379871845 - real_iter_time: 0.3420679569244385	Iter 3 - Loss: 0.9505085237324238 - real_iter_time: 0.36295199394226074	Iter 4 - Loss: 0.986172035336494
…
